data.pth (torch, 5015 bytes, 6 tensors)

l1.weight f4 [8, 48]
0	0xbd4d54e0	-0.05012977
1	0x3f109082	0.564705
2	0x3cb45b83	0.022016292
3	0x3d980e69	0.074246235
4	0x3f16b732	0.58873284
5	0x3b0e1ef3	0.0021685928
6	0x3f0cb980	0.5497055
7	0x3f008ad7	0.5021185
8	0x3f5c7393	0.8611385
9	0xbf1e5cfc	-0.6186063
10	0x3e96640d	0.29373208
11	0x3f1d6444	0.6148112
12	0xbe373be7	-0.17893945
13	0xbf40ac71	-0.75263125
14	0x3f0b124d	0.543248
15	0x3f580c97	0.8439421
16	0x3cccd870	0.02500555
17	0xbf434cf0	-0.7628927
18	0xbf40eb62	-0.75359166
19	0x3ef8845a	0.48538476
20	0x3f15712d	0.5837582
21	0x3f3774f6	0.71662843
22	0x3ee4fcdc	0.44724166
23	0x3eb792a6	0.3585407
24	0xbe758934	-0.2397812
25	0xbe9b2ee1	-0.30309203
26	0x3f338e16	0.7013868
27	0xbe1496b6	-0.14510617
28	0xbd6ae16b	-0.05734388
29	0x3f31bf43	0.6943247
30	0xbe74a9eb	-0.23892944
31	0xbeb97506	-0.36222094
32	0xbf066645	-0.524998
33	0x3f54cade	0.8312205
34	0xbe9b3231	-0.3031173
35	0x3f1f71c7	0.62282985
36	0x3eb305e9	0.34965447
37	0xbcee75b2	-0.029108856
38	0xbed11c22	-0.40841776
39	0xbe7d78cc	-0.24753112
40	0x3f47b3b3	0.78008574
41	0x3ed490db	0.41516766
42	0xbe71f039	-0.23626794
43	0xbe25996b	-0.16171806
44	0xbf0dcac6	-0.5538753
45	0x3eb5efdb	0.35534558
46	0x3f603788	0.87584734
47	0x3de1755b	0.11008712
48	0xbefee530	-0.4978423
49	0xbeab1d5e	-0.33420843
50	0x3f1d1be2	0.6137067
51	0x3f2358f9	0.63807636
52	0xbecdfc12	-0.40231377
53	0x3f11c56c	0.56941867
54	0xbec0c348	-0.37648988
55	0x3efb7a59	0.4911678
56	0x3f0e0ed2	0.55491364
57	0xbe2ba565	-0.16762312
58	0x3f4ecf30	0.80784893
59	0x3e6b145f	0.2295699
60	0x3f078ab4	0.5294602
61	0xbe6eecd6	-0.23332533
62	0xbeb89a68	-0.36055303
63	0x3c6afd38	0.014342599
64	0x3e745150	0.23859143
65	0xbe98a691	-0.2981458
66	0xbea6dd46	-0.32590693
67	0xbf0b9ad1	-0.54533106
68	0xbedab930	-0.42719412
69	0xbee3b7a0	-0.44476032
70	0xbeb9ad4b	-0.36265025
71	0xbec3caa2	-0.38240534
72	0x3ee3709d	0.44421855
73	0x3f4b061d	0.79306203
74	0x3eeaa147	0.4582617
75	0x3f3c0f8c	0.7346122
76	0x3ee4b0b4	0.44666064
77	0x3ed3d68e	0.4137463
78	0x3f7f08f9	0.99623066
79	0xbed2e385	-0.4118921
80	0xbe889c88	-0.26681924
81	0x3f023c51	0.50873286
82	0xbdac98f9	-0.08427615
83	0xbe2dfceb	-0.16991012
84	0xbe826633	-0.25468597
85	0x3f201140	0.6252632
86	0x3b7b5cc3	0.003835485
87	0x3f77a4c0	0.96735764
88	0x3ec86127	0.3913662
89	0xbd1da6e2	-0.03848923
90	0x3f03691e	0.5133227
91	0x3eea69bc	0.45783794
92	0xbe8883d1	-0.26663068
93	0x3efe7b87	0.4970362
94	0x3d9c1083	0.07620337
95	0x3f02aa58	0.51041174
96	0x3f2cfdf1	0.67574984
97	0xbed7bb31	-0.42135003
98	0xbbd8a3b0	-0.00661131
99	0xbf017d84	-0.50582147
100	0x3f551bce	0.8324555
101	0xbebc28a9	-0.3674977
102	0xbe5fee46	-0.21868238
103	0x3ed25caf	0.41086337
104	0x3df54140	0.11975336
105	0x3d2ae2dc	0.041720256
106	0x3f1869d6	0.5953649
107	0xbf68485c	-0.9073541
108	0x3ea67e2b	0.32518134
109	0xbf2cf433	-0.6756012
110	0xbee49657	-0.4464595
111	0x3e530709	0.20608152
112	0x3ea0b8d3	0.3139101
113	0x3eb6d47f	0.35708997
114	0xbf2ceca5	-0.6754859
115	0x3f22e477	0.6362986
116	0x3f4a0348	0.78911257
117	0x3f173e9c	0.5907991
118	0x3f5a743e	0.8533362
119	0x3f4f50ca	0.8098265
120	0x3eddd517	0.43326637
121	0x3ee64b34	0.4497925
122	0x3edbd1a6	0.42933387
123	0xbea9b18d	-0.33143273
124	0xbee728f9	-0.45148447
125	0x3ec4dd25	0.3844997
126	0xbf2cedb1	-0.6755019
127	0x3d8bf2a2	0.06833388
128	0x3d444a02	0.04792214
129	0x3df79090	0.1208812
130	0x3ed64a01	0.41853335
131	0x3f376d0d	0.71650773
132	0xbdc097d1	-0.09403957
133	0xbeb03b9a	-0.34420472
134	0x3f0466d4	0.51719403
135	0xbf2cee04	-0.67550683
136	0x3e58486f	0.21121381
137	0xbd7c4d0b	-0.06159691
138	0x3e9c04a0	0.3047228
139	0x3e811555	0.25211588
140	0x3cafccc4	0.021459945
141	0x3da9f53d	0.082987286
142	0x3eb1c773	0.3472248
143	0xbc996b20	-0.018727839
144	0x3c97ea88	0.01854445
145	0xbdc72f62	-0.097258344
146	0x3e101d38	0.14073646
147	0xbdfa2d5b	-0.12215682
148	0x3d8fe7e0	0.070266485
149	0xbd2eee36	-0.042707644
150	0xbc02ad50	-0.007975891
151	0xbdcd3122	-0.10019137
152	0x3c110e3a	0.0088534895
153	0xbe0dd858	-0.1385206
154	0x3da6db79	0.0814733
155	0xbdd5361c	-0.10410711
156	0x3dad0949	0.08449037
157	0xbbf88040	-0.007583648
158	0xbddcc056	-0.10778873
159	0x3d0a2600	0.033727646
160	0xbbfa1fa0	-0.0076331645
161	0x3b803a0d	0.00391317
162	0xbd3d87e6	-0.04627218
163	0xbd9b6b48	-0.07588822
164	0x3dc59ada	0.09648676
165	0x3dec9ad0	0.11552966
166	0xbe0edfdb	-0.13952582
167	0xbd32ce8c	-0.04365401
168	0x3dadd550	0.08487952
169	0xbe0d5de0	-0.13805342
170	0xbd757a4e	-0.059931092
171	0x3da027a6	0.07820062
172	0x3d769f7c	0.06021069
173	0x3d4ad6e3	0.04952134
174	0xbd0a2086	-0.033722423
175	0x3e02dbe2	0.12779191
176	0x3ddfb54c	0.109232515
177	0x3dd4eced	0.103967525
178	0xbe0b63b2	-0.1361225
179	0xbb2a85c0	-0.0026019663
180	0xbddb932e	-0.10721432
181	0xbdc28944	-0.094988376
182	0xbdb12f40	-0.0865159
183	0x3da89339	0.082312055
184	0x3c90f17c	0.017693274
185	0xbc243c30	-0.010024115
186	0x3debed2b	0.115198456
187	0xbd8fac39	-0.07015271
188	0x3c1f8b30	0.009737775
189	0xbdc73e6c	-0.09728703
190	0x3ceff028	0.02928932
191	0x3d81be39	0.0633511
192	0x3e58415a	0.2111868
193	0x3f0542c0	0.5205498
194	0xbec772f2	-0.38954884
195	0xbda21b9f	-0.079154246
196	0x3ebf40f4	0.37354243
197	0xbdb2dec8	-0.087338984
198	0x3f00b3c0	0.50274277
199	0xbdaa1702	-0.0830517
200	0x3e8342b9	0.25636843
201	0x3ebe2ad8	0.37142062
202	0xbd9833a8	-0.07431728
203	0xbdfa7a04	-0.12230304
204	0xbe08412d	-0.13306113
205	0x3f81b3f2	1.013304
206	0x3e902e8c	0.28160512
207	0xbec3a6cd	-0.38213196
208	0xbe9d4b4d	-0.30721512
209	0x3eb9b889	0.36273602
210	0x3f6fb00e	0.93628013
211	0x3e2ed0bb	0.17071812
212	0x3e93fcb1	0.28903726
213	0x3e8bf661	0.2733641
214	0x3e9fafe7	0.3118889
215	0x3e81bc25	0.25338855
216	0xbe5db7e9	-0.21652187
217	0xbf0477f5	-0.5174554
218	0x3c981178	0.018563017
219	0x3e2703e2	0.16310075
220	0xbe23c919	-0.15994681
221	0x3f44e1d7	0.76907104
222	0x3bcd9c79	0.0062747565
223	0x3e8d2696	0.275685
224	0x3eb50ade	0.35359854
225	0x3ed86c6e	0.42270225
226	0xbea726bc	-0.3264674
227	0xbec9c87b	-0.39410767
228	0x3ed3e511	0.413857
229	0x3dffe374	0.12494555
230	0xbea79270	-0.3272891
231	0xbc0dcf82	-0.008655431
232	0x3e9e9c52	0.30978638
233	0x3eee32a7	0.4652302
234	0xbe94d3b5	-0.2906777
235	0xbe082eac	-0.13299054
236	0x3e81c704	0.2534715
237	0x3ee1a4d2	0.4407106
238	0xbebc23a5	-0.36745945
239	0x3eba05ce	0.36332554
240	0x3ec2fc05	0.380829
241	0xbeb749a8	-0.35798383
242	0x3f7d7f63	0.990225
243	0x3f154864	0.58313584
244	0xbeea879c	-0.45806587
245	0x3eba8ca7	0.36435434
246	0xbebae0f3	-0.36499748
247	0x3f4c47e8	0.7979722
248	0x3f0838be	0.5321158
249	0x3f1760e8	0.5913224
250	0x3ef88dc3	0.48545656
251	0x3f1016dd	0.56284887
252	0x3ebd1752	0.36931854
253	0x3e6c8116	0.23096117
254	0xbefe270e	-0.4963917
255	0x3e3f1619	0.18660773

l1.bias f4 [8]
0	0x3f4a446f	0.7901067
1	0x3f1480eb	0.58009213
2	0x3f2cec23	0.67547816
3	0xbe365c6b	-0.17808692
4	0x3f81fa20	1.0154457
5	0x3eea878a	0.45806533
6	0x3f07409f	0.5283298
7	0x3ecb0523	0.39652357

l2.weight f4 [8, 8]
0	0x3fb46212	1.4092429
1	0xbf7a5c69	-0.97797257
2	0x3f8a7a73	1.0818619
3	0x3ea51a02	0.32246405
4	0x3f700e33	0.93771666
5	0x3eca9975	0.39570203
6	0x3f87de67	1.0614747
7	0xbdd37656	-0.10325305
8	0x3f3675ee	0.71273696
9	0x3f512988	0.81703997
10	0xbfb6f27f	-1.4292754
11	0xbd99a124	-0.07501438
12	0x3fa335bf	1.2750777
13	0x3f31287a	0.6920239
14	0xbf54bc17	-0.830995
15	0x3eb6b754	0.35686743
16	0x3f51e6e8	0.8199296
17	0x3f995307	1.1978463
18	0xbd854ab6	-0.065083906
19	0xbd44a54d	-0.048009206
20	0x3f2fb836	0.6864046
21	0xbdda1132	-0.10647811
22	0xbea468e0	-0.32111263
23	0xbfbf3990	-1.4939442
24	0xbe7d6d11	-0.24748637
25	0xbe21f317	-0.15815388
26	0xbf0b7346	-0.5447277
27	0x3dff6266	0.1246994
28	0x3fb876ef	1.4411296
29	0x3d3611a8	0.044450432
30	0x3f3e0e4e	0.7424058
31	0x3ea85481	0.3287697
32	0x3fad5532	1.3541625
33	0x3e033afb	0.12815468
34	0x3f958d53	1.1683754
35	0xbdf8524f	-0.12125074
36	0x3ea88e38	0.32921004
37	0xbf73a65c	-0.9517572
38	0xbf0fd4bc	-0.5618398
39	0x3f7c519f	0.98562044
40	0x3e6ff4c0	0.23433208
41	0x3f3fb142	0.7487985
42	0x3fb8275e	1.4387014
43	0xbe05e840	-0.13076878
44	0xbf4a2946	-0.7896923
45	0x3fb423b5	1.4073397
46	0x3f855b3e	1.041847
47	0x3fb103ed	1.3829323
48	0x3f3b721d	0.73221
49	0xbecd1e56	-0.40062207
50	0xbf699000	-0.9123535
51	0x3e65a9ba	0.22428027
52	0x3f356cd3	0.7086918
53	0xbf68a7ef	-0.90881246
54	0xbf4c9c76	-0.7992624
55	0x3f54be07	0.8310246
56	0xbdec7de6	-0.11547451
57	0xbf86e7fd	-1.0539547
58	0x3f0abd5d	0.54195195
59	0x3e3e5386	0.18586549
60	0x3fab3c44	1.3377767
61	0xbeb5021f	-0.3535318
62	0x3f71e141	0.94484335
63	0xbf021a7a	-0.5082165

l2.bias f4 [8]
0	0xbe4492b4	-0.19196588
1	0x3dd969f1	0.1061591
2	0x3f5e10ea	0.8674456
3	0x3f3e6f48	0.7438855
4	0x3f519db1	0.81881243
5	0xbecacdb1	-0.39610055
6	0xbdef760e	-0.11692439
7	0x3eb9f764	0.36321557

l3.weight f4 [12, 8]
0	0xbfa264ae	-1.2686975
1	0x3e6bf939	0.2304429
2	0x3eaa7590	0.33292818
3	0xbf40b57c	-0.75276923
4	0xbfa84f32	-1.3149168
5	0x3edc368c	0.43010366
6	0xbf10ab0a	-0.56510985
7	0xbec24f19	-0.37950972
8	0xbdb4b353	-0.08823266
9	0x3e90c1e9	0.28272942
10	0xbf871f7c	-1.0556483
11	0x3e075258	0.13215005
12	0xbe3374a3	-0.17524962
13	0x3e279b33	0.16367798
14	0xbee0aa14	-0.4387976
15	0xbf7ccce1	-0.9875012
16	0xbfe54593	-1.7911857
17	0xbed3dadc	-0.41377914
18	0xbf6091f3	-0.877227
19	0xbf800e7f	-1.0004424
20	0x3e550e89	0.20806326
21	0x3f0f70c5	0.5603145
22	0xbf0e1b6a	-0.5551058
23	0xbf755d67	-0.95845646
24	0x3ee23868	0.4418366
25	0xbfa4970c	-1.2858596
26	0xbf5a7a77	-0.85343117
27	0xbef547b4	-0.47906268
28	0xbfae7ec2	-1.3632433
29	0x3f1109bc	0.5665548
30	0xbe7cf296	-0.24701914
31	0xbfac56c8	-1.3463984
32	0x3d091666	0.033468626
33	0x3e8478b8	0.2587335
34	0xbf15b9ac	-0.5848644
35	0xbe5a0bd1	-0.2129357
36	0x3e8bb863	0.27289113
37	0xbfab67ff	-1.3391112
38	0x3f6c5b89	0.9232717
39	0xbe353683	-0.17696576
40	0x3ee82215	0.45338503
41	0x3eca662a	0.3953107
42	0x3edda2bc	0.4328822
43	0xbf3acb98	-0.7296691
44	0xbe84167c	-0.25798404
45	0xbf30626f	-0.689002
46	0xbf079c32	-0.5297271
47	0xbfa9195f	-1.3210868
48	0x3e9d4cf3	0.3072277
49	0x3e919314	0.28432524
50	0x3ba9029b	0.0051577813
51	0x3f3a6def	0.72823995
52	0xbf31fb36	-0.6952394
53	0xbff20f58	-1.8910933
54	0xbf8f84e0	-1.1212425
55	0x3eec94b6	0.46207207
56	0x3f1bba08	0.60830736
57	0xbfb9a7b3	-1.4504303
58	0xbdb4564a	-0.08805521
59	0x3cd2e9c7	0.02574624
60	0x3f50eca4	0.81611085
61	0xbf9193ba	-1.1373208
62	0xbf42578d	-0.7591484
63	0x3ee07b67	0.4384415
64	0x3eb55b77	0.35421345
65	0xbfe4167c	-1.7819362
66	0xbf90aee2	-1.130337
67	0xbf5fa808	-0.8736577
68	0x3ed0ae0f	0.40757796
69	0xbc8643e6	-0.016389798
70	0xbe4b9ed2	-0.19884804
71	0xbf9d7f33	-1.2304443
72	0xbf3ab340	-0.72929764
73	0xbffb6b9d	-1.9642216
74	0x3f433f56	0.7626852
75	0xbf35f1b8	-0.7107196
76	0x3f01198c	0.50429606
77	0x3c5a0bdf	0.013308494
78	0xbee55f2b	-0.4479917
79	0xbf82ebac	-1.0228171
80	0x3e6cc86e	0.23123333
81	0xbf926145	-1.1435934
82	0xbf281cf4	-0.6566918
83	0x3edf5f49	0.43627384
84	0xbf9869e3	-1.1907314
85	0xbd8085fa	-0.06275554
86	0xbe8a3236	-0.26991433
87	0x3ec122dc	0.37721908
88	0xbfbde94b	-1.483682
89	0x3f2d213b	0.6762883
90	0x3f4e9aa4	0.8070471
91	0x3ecc00e8	0.3984444
92	0x3f0496c5	0.51792556
93	0xbfd989e5	-1.6995207
94	0xbeb1fd3b	-0.34763512
95	0xbfc85ae0	-1.5652733

l3.bias f4 [12]
0	0xbefe0092	-0.4960981
1	0xbef3a52e	-0.4758696
2	0x3f147687	0.5799336
3	0xbdc16fed	-0.09445176
4	0xbef9c83b	-0.48785576
5	0xbe3f79ff	-0.18698882
6	0x3def7906	0.11693005
7	0xbe3a6a0e	-0.18204519
8	0xbe40ec36	-0.18840107
9	0x3e8d6a2f	0.27620074
10	0xbe305b0b	-0.1722223
11	0x3f36c1b5	0.71389323
